…
  WEIGHT_DECAY_NORM: 0.0
TEST:
  AUG:
    ENABLED: False
    FLIP: True
    MAX_SIZE: 4000
    MIN_SIZES: (400, 500, 600, 700, 800, 900, 1000, 1100, 1200)
  DETECTIONS_PER_IMAGE: 100
  EVAL_PERIOD: 0
  EXPECTED_RESULTS: []
  KEYPOINT_OKS_SIGMAS: []
  PRECISE_BN:
    ENABLED: False
    NUM_ITER: 200
VERSION: 2
VIS_PERIOD: 0
[06/14 19:12:06] detectron2 INFO: Full config saved to output/centermask/CenterMask-V-99-ms-3x/config.yaml
[06/14 19:12:06] d2.utils.env INFO: Using a generated random seed 7204565
[06/14 19:12:08] d2.engine.defaults INFO: Model:
GeneralizedRCNN(
  (backbone): FPN(
    (fpn_lateral3): Conv2d(512, 256, kernel_size=(1, 1), stride=(1, 1))
    (fpn_output3): Conv2d(256, 256, kernel_size=(3, 3), stride=(1, 1), padding=(1, 1))
    (fpn_lateral4): Conv2d(768, 256, kernel_size=(1, 1), stride=(1, 1))
    (fpn_output4): Conv2d(256, 256, kernel_size=(3, 3), stride=(1, 1), padding=(1, 1))
    (fpn_lateral5): Conv2d(1024, 256, kernel_size=(1, 1), stride=(1, 1))
    (fpn_output5): Conv2d(256, 256, kernel_size=(3, 3), stride=(1, 1), padding=(1, 1))
    (top_block): LastLevelP6P7(
      (p6): Conv2d(256, 256, kernel_size=(3, 3), stride=(2, 2), padding=(1, 1))
      (p7): Conv2d(256, 256, kernel_size=(3, 3), stride=(2, 2), padding=(1, 1))
    )
    (bottom_up): VoVNet(
      (stem): Sequential(
        (stem_1/conv): Conv2d(3, 64, kernel_size=(3, 3), stride=(2, 2), padding=(1, 1), bias=False)
        (stem_1/norm): FrozenBatchNorm2d(num_features=64, eps=1e-05)
        (stem_1/relu): ReLU(inplace=True)
        (stem_2/conv): Conv2d(64, 64, kernel_size=(3, 3), stride=(1, 1), padding=(1, 1), bias=False)
        (stem_2/norm): FrozenBatchNorm2d(num_features=64, eps=1e-05)
        (stem_2/relu): ReLU(inplace=True)
        (stem_3/conv): Conv2d(64, 128, kernel_size=(3, 3), stride=(2, 2), padding=(1, 1), bias=False)
        (stem_3/norm): FrozenBatchNorm2d(num_features=128, eps=1e-05)
        (stem_3/relu): ReLU(inplace=True)
      )
      (stage2): _OSA_stage(
        (OSA2_1): _OSA_module(
          (layers): ModuleList(
            (0): Sequential(
              (OSA2_1_0/conv): Conv2d(128, 128, kernel_size=(3, 3), stride=(1, 1), padding=(1, 1), bias=False)
              (OSA2_1_0/norm): FrozenBatchNorm2d(num_features=128, eps=1e-05)
              (OSA2_1_0/relu): ReLU(inplace=True)
            )
            (1): Sequential(
              (OSA2_1_1/conv): Conv2d(128, 128, kernel_size=(3, 3), stride=(1, 1), padding=(1, 1), bias=False)
              (OSA2_1_1/norm): FrozenBatchNorm2d(num_features=128, eps=1e-05)
              (OSA2_1_1/relu): ReLU(inplace=True)
            )
            (2): Sequential(
              (OSA2_1_2/conv): Conv2d(128, 128, kernel_size=(3, 3), stride=(1, 1), padding=(1, 1), bias=False)
              (OSA2_1_2/norm): FrozenBatchNorm2d(num_features=128, eps=1e-05)
              (OSA2_1_2/relu): ReLU(inplace=True)
            )
            (3): Sequential(
              (OSA2_1_3/conv): Conv2d(128, 128, kernel_size=(3, 3), stride=(1, 1), padding=(1, 1), bias=False)
              (OSA2_1_3/norm): FrozenBatchNorm2d(num_features=128, eps=1e-05)
              (OSA2_1_3/relu): ReLU(inplace=True)
            )
            (4): Sequential(
              (OSA2_1_4/conv): Conv2d(128, 128, kernel_size=(3, 3), stride=(1, 1), padding=(1, 1), bias=False)
              (OSA2_1_4/norm): FrozenBatchNorm2d(num_features=128, eps=1e-05)
              (OSA2_1_4/relu): ReLU(inplace=True)
            )
          )
          (concat): Sequential(
            (OSA2_1_concat/conv): Conv2d(768, 256, kernel_size=(1, 1), stride=(1, 1), bias=False)
            (OSA2_1_concat/norm): FrozenBatchNorm2d(num_features=256, eps=1e-05)
            (OSA2_1_concat/relu): ReLU(inplace=True)
          )
          (ese): eSEModule(
            (avg_pool): AdaptiveAvgPool2d(output_size=1)
            (fc): Conv2d(256, 256, kernel_size=(1, 1), stride=(1, 1))
            (hsigmoid): Hsigmoid()
          )
        )
      )
      (stage3): _OSA_stage(
        (Pooling): MaxPool2d(kernel_size=3, stride=2, padding=0, dilation=1, ceil_mode=True)
        (OSA3_1): _OSA_module(
          (layers): ModuleList(
            (0): Sequential(
              (OSA3_1_0/conv): Conv2d(256, 160, kernel_size=(3, 3), stride=(1, 1), padding=(1, 1), bias=False)
              (OSA3_1_0/norm): FrozenBatchNorm2d(num_features=160, eps=1e-05)
              (OSA3_1_0/relu): ReLU(inplace=True)
            )
            (1): Sequential(
              (OSA3_1_1/conv): Conv2d(160, 160, kernel_size=(3, 3), stride=(1, 1), padding=(1, 1), bias=False)
              (OSA3_1_1/norm): FrozenBatchNorm2d(num_features=160, eps=1e-05)
              (OSA3_1_1/relu): ReLU(inplace=True)
            )
            (2): Sequential(
              (OSA3_1_2/conv): Conv2d(160, 160, kernel_size=(3, 3), stride=(1, 1), padding=(1, 1), bias=False)
              (OSA3_1_2/norm): FrozenBatchNorm2d(num_features=160, eps=1e-05)
              (OSA3_1_2/relu): ReLU(inplace=True)
            )
            (3): Sequential(
              (OSA3_1_3/conv): Conv2d(160, 160, kernel_size=(3, 3), stride=(1, 1), padding=(1, 1), bias=False)
              (OSA3_1_3/norm): FrozenBatchNorm2d(num_features=160, eps=1e-05)
              (OSA3_1_3/relu): ReLU(inplace=True)
            )
            (4): Sequential(
              (OSA3_1_4/conv): Conv2d(160, 160, kernel_size=(3, 3), stride=(1, 1), padding=(1, 1), bias=False)
              (OSA3_1_4/norm): FrozenBatchNorm2d(num_features=160, eps=1e-05)
              (OSA3_1_4/relu): ReLU(inplace=True)
            )
          )
          (concat): Sequential(
            (OSA3_1_concat/conv): Conv2d(1056, 512, kernel_size=(1, 1), stride=(1, 1), bias=False)
            (OSA3_1_concat/norm): FrozenBatchNorm2d(num_features=512, eps=1e-05)
            (OSA3_1_concat/relu): ReLU(inplace=True)
          )
          (ese): eSEModule(
            (avg_pool): AdaptiveAvgPool2d(output_size=1)
            (fc): Conv2d(512, 512, kernel_size=(1, 1), stride=(1, 1))
            (hsigmoid): Hsigmoid()
          )
        )
        (OSA3_2): _OSA_module(
          (layers): ModuleList(
            (0): Sequential(
              (OSA3_2_0/conv): Conv2d(512, 160, kernel_size=(3, 3), stride=(1, 1), padding=(1, 1), bias=False)
              (OSA3_2_0/norm): FrozenBatchNorm2d(num_features=160, eps=1e-05)
              (OSA3_2_0/relu): ReLU(inplace=True)
            )
            (1): Sequential(
              (OSA3_2_1/conv): Conv2d(160, 160, kernel_size=(3, 3), stride=(1, 1), padding=(1, 1), bias=False)
              (OSA3_2_1/norm): FrozenBatchNorm2d(num_features=160, eps=1e-05)
              (OSA3_2_1/relu): ReLU(inplace=True)
            )
            (2): Sequential(
              (OSA3_2_2/conv): Conv2d(160, 160, kernel_size=(3, 3), stride=(1, 1), padding=(1, 1), bias=False)
              (OSA3_2_2/norm): FrozenBatchNorm2d(num_features=160, eps=1e-05)
              (OSA3_2_2/relu): ReLU(inplace=True)
            )
            (3): Sequential(
              (OSA3_2_3/conv): Conv2d(160, 160, kernel_size=(3, 3), stride=(1, 1), padding=(1, 1), bias=False)
              (OSA3_2_3/norm): FrozenBatchNorm2d(num_features=160, eps=1e-05)
              (OSA3_2_3/relu): ReLU(inplace=True)
            )
            (4): Sequential(
              (OSA3_2_4/conv): Conv2d(160, 160, kernel_size=(3, 3), stride=(1, 1), padding=(1, 1), bias=False)
              (OSA3_2_4/norm): FrozenBatchNorm2d(num_features=160, eps=1e-05)
              (OSA3_2_4/relu): ReLU(inplace=True)
            )
          )
          (concat): Sequential(
            (OSA3_2_concat/conv): Conv2d(1312, 512, kernel_size=(1, 1), stride=(1, 1), bias=False)
            (OSA3_2_concat/norm): FrozenBatchNorm2d(num_features=512, eps=1e-05)
            (OSA3_2_concat/relu): ReLU(inplace=True)
          )
          (ese): eSEModule(
            (avg_pool): AdaptiveAvgPool2d(output_size=1)
            (fc): Conv2d(512, 512, kernel_size=(1, 1), stride=(1, 1))
            (hsigmoid): Hsigmoid()
          )
        )
        (OSA3_3): _OSA_module(
          (layers): ModuleList(
            (0): Sequential(
              (OSA3_3_0/conv): Conv2d(512, 160, kernel_size=(3, 3), stride=(1, 1), padding=(1, 1), bias=False)
              (OSA3_3_0/norm): FrozenBatchNorm2d(num_features=160, eps=1e-05)
              (OSA3_3_0/relu): ReLU(inplace=True)
            )
            (1): Sequential(
              (OSA3_3_1/conv): Conv2d(160, 160, kernel_size=(3, 3), stride=(1, 1), padding=(1, 1), bias=False)
              (OSA3_3_1/norm): FrozenBatchNorm2d(num_features=160, eps=1e-05)
              (OSA3_3_1/relu): ReLU(inplace=True)
            )
            (2): Sequential(
              (OSA3_3_2/conv): Conv2d(160, 160, kernel_size=(3, 3), stride=(1, 1), padding=(1, 1), bias=False)
              (OSA3_3_2/norm): FrozenBatchNorm2d(num_features=160, eps=1e-05)
              (OSA3_3_2/relu): ReLU(inplace=True)
            )
            (3): Sequential(
              (OSA3_3_3/conv): Conv2d(160, 160, kernel_size=(3, 3), stride=(1, 1), padding=(1, 1), bias=False)
              (OSA3_3_3/norm): FrozenBatchNorm2d(num_features=160, eps=1e-05)
              (OSA3_3_3/relu): ReLU(inplace=True)
            )
            (4): Sequential(
              (OSA3_3_4/conv): Conv2d(160, 160, kernel_size=(3, 3), stride=(1, 1), padding=(1, 1), bias=False)
              (OSA3_3_4/norm): FrozenBatchNorm2d(num_features=160, eps=1e-05)
              (OSA3_3_4/relu): ReLU(inplace=True)
            )
          )
          (concat): Sequential(
            (OSA3_3_concat/conv): Conv2d(1312, 512, kernel_size=(1, 1), stride=(1, 1), bias=False)
            (OSA3_3_concat/norm): FrozenBatchNorm2d(num_features=512, eps=1e-05)
            (OSA3_3_concat/relu): ReLU(inplace=True)
          )
          (ese): eSEModule(
            (avg_pool): AdaptiveAvgPool2d(output_size=1)
            (fc): Conv2d(512, 512, kernel_size=(1, 1), stride=(1, 1))
            (hsigmoid): Hsigmoid()
          )
        )
      )
      (stage4): _OSA_stage(
        (Pooling): MaxPool2d(kernel_size=3, stride=2, padding=0, dilation=1, ceil_mode=True)
        (OSA4_1): _OSA_module(
          (layers): ModuleList(
            (0): Sequential(
              (OSA4_1_0/conv): Conv2d(512, 192, kernel_size=(3, 3), stride=(1, 1), padding=(1, 1), bias=False)
              (OSA4_1_0/norm): FrozenBatchNorm2d(num_features=192, eps=1e-05)
              (OSA4_1_0/relu): ReLU(inplace=True)
            )
            (1): Sequential(
              (OSA4_1_1/conv): Conv2d(192, 192, kernel_size=(3, 3), stride=(1, 1), padding=(1, 1), bias=False)
              (OSA4_1_1/norm): FrozenBatchNorm2d(num_features=192, eps=1e-05)
              (OSA4_1_1/relu): ReLU(inplace=True)
            )
            (2): Sequential(
              (OSA4_1_2/conv): Conv2d(192, 192, kernel_size=(3, 3), stride=(1, 1), padding=(1, 1), bias=False)
              (OSA4_1_2/norm): FrozenBatchNorm2d(num_features=192, eps=1e-05)
              (OSA4_1_2/relu): ReLU(inplace=True)
            )
            (3): Sequential(
              (OSA4_1_3/conv): Conv2d(192, 192, kernel_size=(3, 3), stride=(1, 1), padding=(1, 1), bias=False)
              (OSA4_1_3/norm): FrozenBatchNorm2d(num_features=192, eps=1e-05)
              (OSA4_1_3/relu): ReLU(inplace=True)
            )
            (4): Sequential(
              (OSA4_1_4/conv): Conv2d(192, 192, kernel_size=(3, 3), stride=(1, 1), padding=(1, 1), bias=False)
              (OSA4_1_4/norm): FrozenBatchNorm2d(num_features=192, eps=1e-05)
              (OSA4_1_4/relu): ReLU(inplace=True)
            )
          )
          (concat): Sequential(
            (OSA4_1_concat/conv): Conv2d(1472, 768, kernel_size=(1, 1), stride=(1, 1), bias=False)
            (OSA4_1_concat/norm): FrozenBatchNorm2d(num_features=768, eps=1e-05)
            (OSA4_1_concat/relu): ReLU(inplace=True)
          )
          (ese): eSEModule(
            (avg_pool): AdaptiveAvgPool2d(output_size=1)
            (fc): Conv2d(768, 768, kernel_size=(1, 1), stride=(1, 1))
            (hsigmoid): Hsigmoid()
          )
        )
        (OSA4_2): _OSA_module(
          (layers): ModuleList(
            (0): Sequential(
              (OSA4_2_0/conv): Conv2d(768, 192, kernel_size=(3, 3), stride=(1, 1), padding=(1, 1), bias=False)
              (OSA4_2_0/norm): FrozenBatchNorm2d(num_features=192, eps=1e-05)
              (OSA4_2_0/relu): ReLU(inplace=True)
            )
            (1): Sequential(
              (OSA4_2_1/conv): Conv2d(192, 192, kernel_size=(3, 3), stride=(1, 1), padding=(1, 1), bias=False)
              (OSA4_2_1/norm): FrozenBatchNorm2d(num_features=192, eps=1e-05)
              (OSA4_2_1/relu): ReLU(inplace=True)
            )
            (2): Sequential(
              (OSA4_2_2/conv): Conv2d(192, 192, kernel_size=(3, 3), stride=(1, 1), padding=(1, 1), bias=False)
              (OSA4_2_2/norm): FrozenBatchNorm2d(num_features=192, eps=1e-05)
              (OSA4_2_2/relu): ReLU(inplace=True)
            )
            (3): Sequential(
              (OSA4_2_3/conv): Conv2d(192, 192, kernel_size=(3, 3), stride=(1, 1), padding=(1, 1), bias=False)
              (OSA4_2_3/norm): FrozenBatchNorm2d(num_features=192, eps=1e-05)
              (OSA4_2_3/relu): ReLU(inplace=True)
            )
            (4): Sequential(
              (OSA4_2_4/conv): Conv2d(192, 192, kernel_size=(3, 3), stride=(1, 1), padding=(1, 1), bias=False)
              (OSA4_2_4/norm): FrozenBatchNorm2d(num_features=192, eps=1e-05)
              (OSA4_2_4/relu): ReLU(inplace=True)
            )
          )
          (concat): Sequential(
            (OSA4_2_concat/conv): Conv2d(1728, 768, kernel_size=(1, 1), stride=(1, 1), bias=False)
            (OSA4_2_concat/norm): FrozenBatchNorm2d(num_features=768, eps=1e-05)
            (OSA4_2_concat/relu): ReLU(inplace=True)
          )
          (ese): eSEModule(
            (avg_pool): AdaptiveAvgPool2d(output_size=1)
            (fc): Conv2d(768, 768, kernel_size=(1, 1), stride=(1, 1))
            (hsigmoid): Hsigmoid()
          )
        )
        (OSA4_3): _OSA_module(
          (layers): ModuleList(
            (0): Sequential(
              (OSA4_3_0/conv): Conv2d(768, 192, kernel_size=(3, 3), stride=(1, 1), padding=(1, 1), bias=False)
              (OSA4_3_0/norm): FrozenBatchNorm2d(num_features=192, eps=1e-05)
              (OSA4_3_0/relu): ReLU(inplace=True)
            )
            (1): Sequential(
              (OSA4_3_1/conv): Conv2d(192, 192, kernel_size=(3, 3), stride=(1, 1), padding=(1, 1), bias=False)
              (OSA4_3_1/norm): FrozenBatchNorm2d(num_features=192, eps=1e-05)
              (OSA4_3_1/relu): ReLU(inplace=True)
            )
            (2): Sequential(
              (OSA4_3_2/conv): Conv2d(192, 192, kernel_size=(3, 3), stride=(1, 1), padding=(1, 1), bias=False)
              (OSA4_3_2/norm): FrozenBatchNorm2d(num_features=192, eps=1e-05)
              (OSA4_3_2/relu): ReLU(inplace=True)
            )
            (3): Sequential(
              (OSA4_3_3/conv): Conv2d(192, 192, kernel_size=(3, 3), stride=(1, 1), padding=(1, 1), bias=False)
              (OSA4_3_3/norm): FrozenBatchNorm2d(num_features=192, eps=1e-05)
              (OSA4_3_3/relu): ReLU(inplace=True)
            )
            (4): Sequential(
              (OSA4_3_4/conv): Conv2d(192, 192, kernel_size=(3, 3), stride=(1, 1), padding=(1, 1), bias=False)
              (OSA4_3_4/norm): FrozenBatchNorm2d(num_features=192, eps=1e-05)
              (OSA4_3_4/relu): ReLU(inplace=True)
            )
          )
          (concat): Sequential(
            (OSA4_3_concat/conv): Conv2d(1728, 768, kernel_size=(1, 1), stride=(1, 1), bias=False)
            (OSA4_3_concat/norm): FrozenBatchNorm2d(num_features=768, eps=1e-05)
            (OSA4_3_concat/relu): ReLU(inplace=True)
          )
          (ese): eSEModule(
            (avg_pool): AdaptiveAvgPool2d(output_size=1)
            (fc): Conv2d(768, 768, kernel_size=(1, 1), stride=(1, 1))
            (hsigmoid): Hsigmoid()
          )
        )
        (OSA4_4): _OSA_module(
          (layers): ModuleList(
            (0): Sequential(
              (OSA4_4_0/conv): Conv2d(768, 192, kernel_size=(3, 3), stride=(1, 1), padding=(1, 1), bias=False)
              (OSA4_4_0/norm): FrozenBatchNorm2d(num_features=192, eps=1e-05)
              (OSA4_4_0/relu): ReLU(inplace=True)
            )
            (1): Sequential(
              (OSA4_4_1/conv): Conv2d(192, 192, kernel_size=(3, 3), stride=(1, 1), padding=(1, 1), bias=False)
              (OSA4_4_1/norm): FrozenBatchNorm2d(num_features=192, eps=1e-05)
              (OSA4_4_1/relu): ReLU(inplace=True)
            )
            (2): Sequential(
              (OSA4_4_2/conv): Conv2d(192, 192, kernel_size=(3, 3), stride=(1, 1), padding=(1, 1), bias=False)
              (OSA4_4_2/norm): FrozenBatchNorm2d(num_features=192, eps=1e-05)
              (OSA4_4_2/relu): ReLU(inplace=True)
            )
            (3): Sequential(
              (OSA4_4_3/conv): Conv2d(192, 192, kernel_size=(3, 3), stride=(1, 1), padding=(1, 1), bias=False)
              (OSA4_4_3/norm): FrozenBatchNorm2d(num_features=192, eps=1e-05)
              (OSA4_4_3/relu): ReLU(inplace=True)
            )
            (4): Sequential(
              (OSA4_4_4/conv): Conv2d(192, 192, kernel_size=(3, 3), stride=(1, 1), padding=(1, 1), bias=False)
              (OSA4_4_4/norm): FrozenBatchNorm2d(num_features=192, eps=1e-05)
              (OSA4_4_4/relu): ReLU(inplace=True)
            )
          )
          (concat): Sequential(
            (OSA4_4_concat/conv): Conv2d(1728, 768, kernel_size=(1, 1), stride=(1, 1), bias=False)
            (OSA4_4_concat/norm): FrozenBatchNorm2d(num_features=768, eps=1e-05)
            (OSA4_4_concat/relu): ReLU(inplace=True)
          )
          (ese): eSEModule(
            (avg_pool): AdaptiveAvgPool2d(output_size=1)
            (fc): Conv2d(768, 768, kernel_size=(1, 1), stride=(1, 1))
            (hsigmoid): Hsigmoid()
          )
        )
        (OSA4_5): _OSA_module(
          (layers): ModuleList(
            (0): Sequential(
              (OSA4_5_0/conv): Conv2d(768, 192, kernel_size=(3, 3), stride=(1, 1), padding=(1, 1), bias=False)
              (OSA4_5_0/norm): FrozenBatchNorm2d(num_features=192, eps=1e-05)
              (OSA4_5_0/relu): ReLU(inplace=True)
            )
            (1): Sequential(
              (OSA4_5_1/conv): Conv2d(192, 192, kernel_size=(3, 3), stride=(1, 1), padding=(1, 1), bias=False)
              (OSA4_5_1/norm): FrozenBatchNorm2d(num_features=192, eps=1e-05)
              (OSA4_5_1/relu): ReLU(inplace=True)
            )
            (2): Sequential(
              (OSA4_5_2/conv): Conv2d(192, 192, kernel_size=(3, 3), stride=(1, 1), padding=(1, 1), bias=False)
              (OSA4_5_2/norm): FrozenBatchNorm2d(num_features=192, eps=1e-05)
              (OSA4_5_2/relu): ReLU(inplace=True)
            )
            (3): Sequential(
              (OSA4_5_3/conv): Conv2d(192, 192, kernel_size=(3, 3), stride=(1, 1), padding=(1, 1), bias=False)
              (OSA4_5_3/norm): FrozenBatchNorm2d(num_features=192, eps=1e-05)
              (OSA4_5_3/relu): ReLU(inplace=True)
            )
            (4): Sequential(
              (OSA4_5_4/conv): Conv2d(192, 192, kernel_size=(3, 3), stride=(1, 1), padding=(1, 1), bias=False)
              (OSA4_5_4/norm): FrozenBatchNorm2d(num_features=192, eps=1e-05)
              (OSA4_5_4/relu): ReLU(inplace=True)
            )
          )
          (concat): Sequential(
            (OSA4_5_concat/conv): Conv2d(1728, 768, kernel_size=(1, 1), stride=(1, 1), bias=False)
            (OSA4_5_concat/norm): FrozenBatchNorm2d(num_features=768, eps=1e-05)
            (OSA4_5_concat/relu): ReLU(inplace=True)
          )
          (ese): eSEModule(
            (avg_pool): AdaptiveAvgPool2d(output_size=1)
            (fc): Conv2d(768, 768, kernel_size=(1, 1), stride=(1, 1))
            (hsigmoid): Hsigmoid()
          )
        )
        (OSA4_6): _OSA_module(
          (layers): ModuleList(
            (0): Sequential(
              (OSA4_6_0/conv): Conv2d(768, 192, kernel_size=(3, 3), stride=(1, 1), padding=(1, 1), bias=False)
              (OSA4_6_0/norm): FrozenBatchNorm2d(num_features=192, eps=1e-05)
              (OSA4_6_0/relu): ReLU(inplace=True)
            )
            (1): Sequential(
              (OSA4_6_1/conv): Conv2d(192, 192, kernel_size=(3, 3), stride=(1, 1), padding=(1, 1), bias=False)
              (OSA4_6_1/norm): FrozenBatchNorm2d(num_features=192, eps=1e-05)
              (OSA4_6_1/relu): ReLU(inplace=True)
            )
            (2): Sequential(
              (OSA4_6_2/conv): Conv2d(192, 192, kernel_size=(3, 3), stride=(1, 1), padding=(1, 1), bias=False)
              (OSA4_6_2/norm): FrozenBatchNorm2d(num_features=192, eps=1e-05)
              (OSA4_6_2/relu): ReLU(inplace=True)
            )
            (3): Sequential(
              (OSA4_6_3/conv): Conv2d(192, 192, kernel_size=(3, 3), stride=(1, 1), padding=(1, 1), bias=False)
              (OSA4_6_3/norm): FrozenBatchNorm2d(num_features=192, eps=1e-05)
              (OSA4_6_3/relu): ReLU(inplace=True)
            )
            (4): Sequential(
              (OSA4_6_4/conv): Conv2d(192, 192, kernel_size=(3, 3), stride=(1, 1), padding=(1, 1), bias=False)
              (OSA4_6_4/norm): FrozenBatchNorm2d(num_features=192, eps=1e-05)
              (OSA4_6_4/relu): ReLU(inplace=True)
            )
          )
          (concat): Sequential(
            (OSA4_6_concat/conv): Conv2d(1728, 768, kernel_size=(1, 1), stride=(1, 1), bias=False)
            (OSA4_6_concat/norm): FrozenBatchNorm2d(num_features=768, eps=1e-05)
            (OSA4_6_concat/relu): ReLU(inplace=True)
          )
          (ese): eSEModule(
            (avg_pool): AdaptiveAvgPool2d(output_size=1)
            (fc): Conv2d(768, 768, kernel_size=(1, 1), stride=(1, 1))
            (hsigmoid): Hsigmoid()
          )
        )
        (OSA4_7): _OSA_module(
          (layers): ModuleList(
            (0): Sequential(
              (OSA4_7_0/conv): Conv2d(768, 192, kernel_size=(3, 3), stride=(1, 1), padding=(1, 1), bias=False)
              (OSA4_7_0/norm): FrozenBatchNorm2d(num_features=192, eps=1e-05)
              (OSA4_7_0/relu): ReLU(inplace=True)
            )
            (1): Sequential(
              (OSA4_7_1/conv): Conv2d(192, 192, kernel_size=(3, 3), stride=(1, 1), padding=(1, 1), bias=False)
              (OSA4_7_1/norm): FrozenBatchNorm2d(num_features=192, eps=1e-05)
              (OSA4_7_1/relu): ReLU(inplace=True)
            )
            (2): Sequential(
              (OSA4_7_2/conv): Conv2d(192, 192, kernel_size=(3, 3), stride=(1, 1), padding=(1, 1), bias=False)
              (OSA4_7_2/norm): FrozenBatchNorm2d(num_features=192, eps=1e-05)
              (OSA4_7_2/relu): ReLU(inplace=True)
            )
            (3): Sequential(
              (OSA4_7_3/conv): Conv2d(192, 192, kernel_size=(3, 3), stride=(1, 1), padding=(1, 1), bias=False)
              (OSA4_7_3/norm): FrozenBatchNorm2d(num_features=192, eps=1e-05)
              (OSA4_7_3/relu): ReLU(inplace=True)
            )
            (4): Sequential(
              (OSA4_7_4/conv): Conv2d(192, 192, kernel_size=(3, 3), stride=(1, 1), padding=(1, 1), bias=False)
              (OSA4_7_4/norm): FrozenBatchNorm2d(num_features=192, eps=1e-05)
              (OSA4_7_4/relu): ReLU(inplace=True)
            )
          )
          (concat): Sequential(
            (OSA4_7_concat/conv): Conv2d(1728, 768, kernel_size=(1, 1), stride=(1, 1), bias=False)
            (OSA4_7_concat/norm): FrozenBatchNorm2d(num_features=768, eps=1e-05)
            (OSA4_7_concat/relu): ReLU(inplace=True)
          )
          (ese): eSEModule(
            (avg_pool): AdaptiveAvgPool2d(output_size=1)
            (fc): Conv2d(768, 768, kernel_size=(1, 1), stride=(1, 1))
            (hsigmoid): Hsigmoid()
          )
        )
        (OSA4_8): _OSA_module(
          (layers): ModuleList(
            (0): Sequential(
              (OSA4_8_0/conv): Conv2d(768, 192, kernel_size=(3, 3), stride=(1, 1), padding=(1, 1), bias=False)
              (OSA4_8_0/norm): FrozenBatchNorm2d(num_features=192, eps=1e-05)
              (OSA4_8_0/relu): ReLU(inplace=True)
            )
            (1): Sequential(
              (OSA4_8_1/conv): Conv2d(192, 192, kernel_size=(3, 3), stride=(1, 1), padding=(1, 1), bias=False)
              (OSA4_8_1/norm): FrozenBatchNorm2d(num_features=192, eps=1e-05)
              (OSA4_8_1/relu): ReLU(inplace=True)
            )
            (2): Sequential(
              (OSA4_8_2/conv): Conv2d(192, 192, kernel_size=(3, 3), stride=(1, 1), padding=(1, 1), bias=False)
              (OSA4_8_2/norm): FrozenBatchNorm2d(num_features=192, eps=1e-05)
              (OSA4_8_2/relu): ReLU(inplace=True)
            )
            (3): Sequential(
              (OSA4_8_3/conv): Conv2d(192, 192, kernel_size=(3, 3), stride=(1, 1), padding=(1, 1), bias=False)
              (OSA4_8_3/norm): FrozenBatchNorm2d(num_features=192, eps=1e-05)
              (OSA4_8_3/relu): ReLU(inplace=True)
            )
            (4): Sequential(
              (OSA4_8_4/conv): Conv2d(192, 192, kernel_size=(3, 3), stride=(1, 1), padding=(1, 1), bias=False)
              (OSA4_8_4/norm): FrozenBatchNorm2d(num_features=192, eps=1e-05)
              (OSA4_8_4/relu): ReLU(inplace=True)
            )
          )
          (concat): Sequential(
            (OSA4_8_concat/conv): Conv2d(1728, 768, kernel_size=(1, 1), stride=(1, 1), bias=False)
            (OSA4_8_concat/norm): FrozenBatchNorm2d(num_features=768, eps=1e-05)
            (OSA4_8_concat/relu): ReLU(inplace=True)
          )
          (ese): eSEModule(
            (avg_pool): AdaptiveAvgPool2d(output_size=1)
            (fc): Conv2d(768, 768, kernel_size=(1, 1), stride=(1, 1))
            (hsigmoid): Hsigmoid()
          )
        )
        (OSA4_9): _OSA_module(
          (layers): ModuleList(
            (0): Sequential(
              (OSA4_9_0/conv): Conv2d(768, 192, kernel_size=(3, 3), stride=(1, 1), padding=(1, 1), bias=False)
              (OSA4_9_0/norm): FrozenBatchNorm2d(num_features=192, eps=1e-05)
              (OSA4_9_0/relu): ReLU(inplace=True)
            )
            (1): Sequential(
              (OSA4_9_1/conv): Conv2d(192, 192, kernel_size=(3, 3), stride=(1, 1), padding=(1, 1), bias=False)
              (OSA4_9_1/norm): FrozenBatchNorm2d(num_features=192, eps=1e-05)
              (OSA4_9_1/relu): ReLU(inplace=True)
            )
            (2): Sequential(
              (OSA4_9_2/conv): Conv2d(192, 192, kernel_size=(3, 3), stride=(1, 1), padding=(1, 1), bias=False)
              (OSA4_9_2/norm): FrozenBatchNorm2d(num_features=192, eps=1e-05)
              (OSA4_9_2/relu): ReLU(inplace=True)
            )
            (3): Sequential(
              (OSA4_9_3/conv): Conv2d(192, 192, kernel_size=(3, 3), stride=(1, 1), padding=(1, 1), bias=False)
              (OSA4_9_3/norm): FrozenBatchNorm2d(num_features=192, eps=1e-05)
              (OSA4_9_3/relu): ReLU(inplace=True)
            )
            (4): Sequential(
              (OSA4_9_4/conv): Conv2d(192, 192, kernel_size=(3, 3), stride=(1, 1), padding=(1, 1), bias=False)
              (OSA4_9_4/norm): FrozenBatchNorm2d(num_features=192, eps=1e-05)
              (OSA4_9_4/relu): ReLU(inplace=True)
            )
          )
          (concat): Sequential(
            (OSA4_9_concat/conv): Conv2d(1728, 768, kernel_size=(1, 1), stride=(1, 1), bias=False)
            (OSA4_9_concat/norm): FrozenBatchNorm2d(num_features=768, eps=1e-05)
            (OSA4_9_concat/relu): ReLU(inplace=True)
          )
          (ese): eSEModule(
            (avg_pool): AdaptiveAvgPool2d(output_size=1)
            (fc): Conv2d(768, 768, kernel_size=(1, 1), stride=(1, 1))
            (hsigmoid): Hsigmoid()
          )
        )
      )
      (stage5): _OSA_stage(
        (Pooling): MaxPool2d(kernel_size=3, stride=2, padding=0, dilation=1, ceil_mode=True)
        (OSA5_1): _OSA_module(
          (layers): ModuleList(
            (0): Sequential(
              (OSA5_1_0/conv): Conv2d(768, 224, kernel_size=(3, 3), stride=(1, 1), padding=(1, 1), bias=False)
              (OSA5_1_0/norm): FrozenBatchNorm2d(num_features=224, eps=1e-05)
              (OSA5_1_0/relu): ReLU(inplace=True)
            )
            (1): Sequential(
              (OSA5_1_1/conv): Conv2d(224, 224, kernel_size=(3, 3), stride=(1, 1), padding=(1, 1), bias=False)
              (OSA5_1_1/norm): FrozenBatchNorm2d(num_features=224, eps=1e-05)
              (OSA5_1_1/relu): ReLU(inplace=True)
            )
            (2): Sequential(
              (OSA5_1_2/conv): Conv2d(224, 224, kernel_size=(3, 3), stride=(1, 1), padding=(1, 1), bias=False)
              (OSA5_1_2/norm): FrozenBatchNorm2d(num_features=224, eps=1e-05)
              (OSA5_1_2/relu): ReLU(inplace=True)
            )
            (3): Sequential(
              (OSA5_1_3/conv): Conv2d(224, 224, kernel_size=(3, 3), stride=(1, 1), padding=(1, 1), bias=False)
              (OSA5_1_3/norm): FrozenBatchNorm2d(num_features=224, eps=1e-05)
              (OSA5_1_3/relu): ReLU(inplace=True)
            )
            (4): Sequential(
              (OSA5_1_4/conv): Conv2d(224, 224, kernel_size=(3, 3), stride=(1, 1), padding=(1, 1), bias=False)
              (OSA5_1_4/norm): FrozenBatchNorm2d(num_features=224, eps=1e-05)
              (OSA5_1_4/relu): ReLU(inplace=True)
            )
          )
          (concat): Sequential(
            (OSA5_1_concat/conv): Conv2d(1888, 1024, kernel_size=(1, 1), stride=(1, 1), bias=False)
            (OSA5_1_concat/norm): FrozenBatchNorm2d(num_features=1024, eps=1e-05)
            (OSA5_1_concat/relu): ReLU(inplace=True)
          )
          (ese): eSEModule(
            (avg_pool): AdaptiveAvgPool2d(output_size=1)
            (fc): Conv2d(1024, 1024, kernel_size=(1, 1), stride=(1, 1))
            (hsigmoid): Hsigmoid()
          )
        )
        (OSA5_2): _OSA_module(
          (layers): ModuleList(
            (0): Sequential(
              (OSA5_2_0/conv): Conv2d(1024, 224, kernel_size=(3, 3), stride=(1, 1), padding=(1, 1), bias=False)
              (OSA5_2_0/norm): FrozenBatchNorm2d(num_features=224, eps=1e-05)
              (OSA5_2_0/relu): ReLU(inplace=True)
            )
            (1): Sequential(
              (OSA5_2_1/conv): Conv2d(224, 224, kernel_size=(3, 3), stride=(1, 1), padding=(1, 1), bias=False)
              (OSA5_2_1/norm): FrozenBatchNorm2d(num_features=224, eps=1e-05)
              (OSA5_2_1/relu): ReLU(inplace=True)
            )
            (2): Sequential(
              (OSA5_2_2/conv): Conv2d(224, 224, kernel_size=(3, 3), stride=(1, 1), padding=(1, 1), bias=False)
              (OSA5_2_2/norm): FrozenBatchNorm2d(num_features=224, eps=1e-05)
              (OSA5_2_2/relu): ReLU(inplace=True)
            )
            (3): Sequential(
              (OSA5_2_3/conv): Conv2d(224, 224, kernel_size=(3, 3), stride=(1, 1), padding=(1, 1), bias=False)
              (OSA5_2_3/norm): FrozenBatchNorm2d(num_features=224, eps=1e-05)
              (OSA5_2_3/relu): ReLU(inplace=True)
            )
            (4): Sequential(
              (OSA5_2_4/conv): Conv2d(224, 224, kernel_size=(3, 3), stride=(1, 1), padding=(1, 1), bias=False)
              (OSA5_2_4/norm): FrozenBatchNorm2d(num_features=224, eps=1e-05)
              (OSA5_2_4/relu): ReLU(inplace=True)
            )
          )
          (concat): Sequential(
            (OSA5_2_concat/conv): Conv2d(2144, 1024, kernel_size=(1, 1), stride=(1, 1), bias=False)
            (OSA5_2_concat/norm): FrozenBatchNorm2d(num_features=1024, eps=1e-05)
            (OSA5_2_concat/relu): ReLU(inplace=True)
          )
          (ese): eSEModule(
            (avg_pool): AdaptiveAvgPool2d(output_size=1)
            (fc): Conv2d(1024, 1024, kernel_size=(1, 1), stride=(1, 1))
            (hsigmoid): Hsigmoid()
          )
        )
        (OSA5_3): _OSA_module(
          (layers): ModuleList(
            (0): Sequential(
              (OSA5_3_0/conv): Conv2d(1024, 224, kernel_size=(3, 3), stride=(1, 1), padding=(1, 1), bias=False)
              (OSA5_3_0/norm): FrozenBatchNorm2d(num_features=224, eps=1e-05)
              (OSA5_3_0/relu): ReLU(inplace=True)
            )
            (1): Sequential(
              (OSA5_3_1/conv): Conv2d(224, 224, kernel_size=(3, 3), stride=(1, 1), padding=(1, 1), bias=False)
              (OSA5_3_1/norm): FrozenBatchNorm2d(num_features=224, eps=1e-05)
              (OSA5_3_1/relu): ReLU(inplace=True)
            )
            (2): Sequential(
              (OSA5_3_2/conv): Conv2d(224, 224, kernel_size=(3, 3), stride=(1, 1), padding=(1, 1), bias=False)
              (OSA5_3_2/norm): FrozenBatchNorm2d(num_features=224, eps=1e-05)
              (OSA5_3_2/relu): ReLU(inplace=True)
            )
            (3): Sequential(
              (OSA5_3_3/conv): Conv2d(224, 224, kernel_size=(3, 3), stride=(1, 1), padding=(1, 1), bias=False)
              (OSA5_3_3/norm): FrozenBatchNorm2d(num_features=224, eps=1e-05)
              (OSA5_3_3/relu): ReLU(inplace=True)
            )
            (4): Sequential(
              (OSA5_3_4/conv): Conv2d(224, 224, kernel_size=(3, 3), stride=(1, 1), padding=(1, 1), bias=False)
              (OSA5_3_4/norm): FrozenBatchNorm2d(num_features=224, eps=1e-05)
              (OSA5_3_4/relu): ReLU(inplace=True)
            )
          )
          (concat): Sequential(
            (OSA5_3_concat/conv): Conv2d(2144, 1024, kernel_size=(1, 1), stride=(1, 1), bias=False)
            (OSA5_3_concat/norm): FrozenBatchNorm2d(num_features=1024, eps=1e-05)
            (OSA5_3_concat/relu): ReLU(inplace=True)
          )
          (ese): eSEModule(
            (avg_pool): AdaptiveAvgPool2d(output_size=1)
            (fc): Conv2d(1024, 1024, kernel_size=(1, 1), stride=(1, 1))
            (hsigmoid): Hsigmoid()
          )
        )
      )
    )
  )
  (proposal_generator): FCOS(
    (iou_loss): IOULoss()
    (fcos_head): FCOSHead(
      (cls_tower): Sequential(
        (0): Conv2d(256, 256, kernel_size=(3, 3), stride=(1, 1), padding=(1, 1))
        (1): GroupNorm(32, 256, eps=1e-05, affine=True)
        (2): ReLU()
        (3): Conv2d(256, 256, kernel_size=(3, 3), stride=(1, 1), padding=(1, 1))
        (4): GroupNorm(32, 256, eps=1e-05, affine=True)
        (5): ReLU()
        (6): Conv2d(256, 256, kernel_size=(3, 3), stride=(1, 1), padding=(1, 1))
        (7): GroupNorm(32, 256, eps=1e-05, affine=True)
        (8): ReLU()
        (9): Conv2d(256, 256, kernel_size=(3, 3), stride=(1, 1), padding=(1, 1))
        (10): GroupNorm(32, 256, eps=1e-05, affine=True)
        (11): ReLU()
      )
      (bbox_tower): Sequential(
        (0): Conv2d(256, 256, kernel_size=(3, 3), stride=(1, 1), padding=(1, 1))
        (1): GroupNorm(32, 256, eps=1e-05, affine=True)
        (2): ReLU()
        (3): Conv2d(256, 256, kernel_size=(3, 3), stride=(1, 1), padding=(1, 1))
        (4): GroupNorm(32, 256, eps=1e-05, affine=True)
        (5): ReLU()
        (6): Conv2d(256, 256, kernel_size=(3, 3), stride=(1, 1), padding=(1, 1))
        (7): GroupNorm(32, 256, eps=1e-05, affine=True)
        (8): ReLU()
        (9): Conv2d(256, 256, kernel_size=(3, 3), stride=(1, 1), padding=(1, 1))
        (10): GroupNorm(32, 256, eps=1e-05, affine=True)
        (11): ReLU()
      )
      (share_tower): Sequential()
      (cls_logits): Conv2d(256, 80, kernel_size=(3, 3), stride=(1, 1), padding=(1, 1))
      (bbox_pred): Conv2d(256, 4, kernel_size=(3, 3), stride=(1, 1), padding=(1, 1))
      (ctrness): Conv2d(256, 1, kernel_size=(3, 3), stride=(1, 1), padding=(1, 1))
      (scales): ModuleList(
        (0): Scale()
        (1): Scale()
        (2): Scale()
        (3): Scale()
        (4): Scale()
      )
    )
  )
  (roi_heads): CenterROIHeads(
    (mask_pooler): ROIPooler(
      (level_poolers): ModuleList(
        (0): ROIAlign(output_size=(14, 14), spatial_scale=0.125, sampling_ratio=0, aligned=True)
        (1): ROIAlign(output_size=(14, 14), spatial_scale=0.0625, sampling_ratio=0, aligned=True)
        (2): ROIAlign(output_size=(14, 14), spatial_scale=0.03125, sampling_ratio=0, aligned=True)
      )
    )
    (mask_head): SpatialAttentionMaskHead(
      (mask_fcn1): Conv2d(256, 256, kernel_size=(3, 3), stride=(1, 1), padding=(1, 1))
      (mask_fcn2): Conv2d(256, 256, kernel_size=(3, 3), stride=(1, 1), padding=(1, 1))
      (mask_fcn3): Conv2d(256, 256, kernel_size=(3, 3), stride=(1, 1), padding=(1, 1))
      (mask_fcn4): Conv2d(256, 256, kernel_size=(3, 3), stride=(1, 1), padding=(1, 1))
      (spatialAtt): SpatialAttention(
        (conv): Conv2d(2, 1, kernel_size=(3, 3), stride=(1, 1), padding=(1, 1), bias=False)
        (sigmoid): Sigmoid()
      )
      (deconv): ConvTranspose2d(256, 256, kernel_size=(2, 2), stride=(2, 2))
      (predictor): Conv2d(256, 80, kernel_size=(1, 1), stride=(1, 1))
    )
    (maskiou_head): MaskIoUHead(
      (maskiou_fcn1): Conv2d(257, 256, kernel_size=(3, 3), stride=(1, 1), padding=(1, 1))
      (maskiou_fcn2): Conv2d(256, 256, kernel_size=(3, 3), stride=(1, 1), padding=(1, 1))
      (maskiou_fcn3): Conv2d(256, 256, kernel_size=(3, 3), stride=(1, 1), padding=(1, 1))
      (maskiou_fcn4): Conv2d(256, 256, kernel_size=(3, 3), stride=(2, 2), padding=(1, 1))
      (maskiou_fc1): Linear(in_features=12544, out_features=1024, bias=True)
      (maskiou_fc2): Linear(in_features=1024, out_features=1024, bias=True)
      (maskiou): Linear(in_features=1024, out_features=80, bias=True)
      (pooling): MaxPool2d(kernel_size=[2, 2], stride=[2, 2], padding=[0, 0], dilation=[1, 1], ceil_mode=False)
    )
  )
)
[06/14 19:16:15] detectron2 INFO: Rank of current process: 0. World size: 1
[06/14 19:16:15] detectron2 INFO: Environment info:
----------------------  ---------------------------------------------------------------------------------------
…
